cifar/params/10_bias.npy (npy, 480 bytes, 1 tensors)

array f4 [100]
000000 f0 96 73 be 97 63 9f 3e db 2f de 3d f6 f0 7b bd
       -0.23788047 0.3113067 0.108489715 -0.061509095
000010 08 9b 9e be 7a 90 08 be 18 fe d3 3e 83 67 ee 3d
       -0.30977654 -0.13336363 0.41404796 0.11640837
000020 2c 56 b0 bd f6 ec 18 3f 85 1d 1c 3e 63 3c 8d 3f
       -0.08610186 0.59736574 0.15245636 1.1034054
000030 28 66 cc be 32 ff f5 be 86 a9 a2 be 90 5e c4 3d
       -0.3992169 -0.4804626 -0.3176996 0.09588349
000040 36 ca 0a 3f 15 90 cf 3e e9 4c 56 be e2 26 19 be
       0.542148 0.40539613 -0.20927776 -0.14956239
000050 39 38 cb 3e 1b ec 9c bd 10 2b 97 bd 80 05 79 bb
       0.39691332 -0.07662221 -0.073812604 -0.0037997663
000060 66 be f7 3e 33 38 8e be 75 6d 7c bd ea 4b 0c bd
       0.4838745 -0.27777252 -0.061627824 -0.034252085
000070 18 62 99 bd da 1a ea 3d 28 d9 50 3f 09 d5 93 3e
       -0.07489413 0.11430903 0.81581354 0.2887347
000080 79 40 f0 3e 62 3e a3 bc 4e ab 05 be 84 78 e0 bd
       0.4692419 -0.019927207 -0.13053629 -0.109604865
000090 3a 88 28 bd 9e 09 79 3e a8 10 d1 3e 92 62 0b 3f
       -0.04114554 0.24320075 0.4083302 0.5444728
0000a0 36 05 25 3f 2c f3 ee 3e 09 f0 78 3d 74 ca 05 be
       0.64461076 0.466699 0.06077579 -0.13065511
0000b0 11 69 33 be 39 ff d0 bc 16 83 66 3d 52 6d 0b 3f
       -0.17520548 -0.025512325 0.056277357 0.54463685
0000c0 b3 d0 03 bd f7 9b 93 be b6 7d 88 3e 1c a6 04 3c
       -0.032181453 -0.2882993 0.2665841 0.008096244
0000d0 e9 a6 bf bd 7d a3 2d be 58 d7 27 be 11 f2 08 3c
       -0.093580075 -0.16956897 -0.16390741 0.008358494
0000e0 2d 7a c0 3e a9 82 e0 bd 64 77 f6 bd 58 f4 b7 be
       0.37593213 -0.109624214 -0.12034491 -0.35928607
0000f0 80 2f 2b be b6 d8 61 bb c0 b8 c8 be 2c ee 77 3e
       -0.16717339 -0.0034461445 -0.39203453 0.24211949
000100 9f 66 4b 3e db 1e 41 be e7 3e ef 3e f6 08 55 bd
       0.19863366 -0.18859427 0.46727678 -0.0520105
000110 b3 8c 80 be 01 23 9c be 1e 3b 6b 3f 76 29 1c be
       -0.25107345 -0.30495456 0.9188708 -0.15250191
000120 0d 95 f4 bd e4 2d 09 3e 30 ac 00 3f 2e 32 d2 3e
       -0.11942492 0.13396412 0.5026274 0.4105391
000130 10 64 6c 3e d4 81 50 3f 31 c6 68 bc 9e e3 41 3e
       0.23085046 0.814481 -0.014207409 0.18934485
000140 da 61 a6 bd 0c 68 3b 3f 5a 55 7e 3d ec 7d 76 3e
       -0.081241325 0.7320564 0.062093116 0.24071473
000150 cd 1e 55 bd 02 8e 72 be f6 69 30 3e 56 35 ad be
       -0.052031327 -0.23686984 0.17227921 -0.33829755
000160 d4 1a 5b 3d a1 77 08 3d 15 fd 64 3e 5e eb 97 3e
       0.053492382 0.033317212 0.22362168 0.29671758
000170 99 a7 57 3e 38 96 2e bd 44 33 0d 3f dd 01 45 3c
       0.21060027 -0.04262373 0.5515635 0.01202437
000180 16 00 9c 3f 12 20 93 be 71 6c 40 be a8 9b 05 3f
       1.2187526 -0.28735405 -0.18791367 0.5219064
