cifar/params/10_weight.npy (npy, 40080 bytes, 1 tensors)

array f4 [100, 100]
000000 9f b1 67 be 2d da 59 bd 34 cf a3 3e 55 f6 98 3e
       -0.22626351 -0.053186584 0.3199402 0.29875436
000010 74 db 05 bf 7b 94 05 3e a3 d7 ee 3d 45 43 ee 3c
       -0.52287984 0.13044922 0.11662223 0.029084811
000020 63 e5 88 3b 24 5d 9c bd 88 a8 ff bd 07 10 88 3e
       0.0041777357 -0.07634953 -0.12483317 0.26574728
000030 86 17 93 be 0c 87 ba 3d 19 7a 81 3e 97 de 00 3e
       -0.28728884 0.091077894 0.25288466 0.12584911
000040 b3 55 23 be 38 84 93 3e fd aa 91 3e 65 fe d7 be
       -0.1595066 0.28811812 0.28450766 -0.42186275
000050 de 06 3d 3e 7e aa 1d 3e 38 2d 43 be 6d 51 70 bd
       0.18459651 0.15397069 -0.19060218 -0.058671404
000060 61 1e 96 bd cd f8 4f 3d 09 12 3f be 20 15 c7 be
       -0.07330013 0.050774384 -0.18659224 -0.38883305
000070 e4 3b ab 3d f4 05 b1 3e b8 bb 16 3e 3d 2c 45 3c
       0.083610326 0.34574854 0.14720047 0.012034473
000080 fb b3 03 be fb a9 98 3e 04 a5 15 bd 83 cd c8 bd
       -0.12861626 0.29817185 -0.036534324 -0.09804823
000090 d5 0e 7b 3e 5a 48 97 be 31 97 ca be 05 c8 3a be
       0.24517377 -0.29547387 -0.39568475 -0.18240364
0000a0 16 da b4 be 5c b0 04 3e 41 dd 9d bd 97 ef c6 bd
       -0.35322636 0.12957901 -0.077082165 -0.09713667
0000b0 e8 24 13 3e 4e a1 35 3d 61 2c c3 b9 88 52 f9 3d
       0.14369547 0.044343285 -0.00037226363 0.12173945
0000c0 6c 68 f5 bd 47 59 b6 be e5 70 7a be ef b0 30 bd
       -0.119828075 -0.35614988 -0.24457128 -0.043137487
0000d0 2d 51 1d bd 61 e6 cd be 5c 33 71 3e 02 0b 8f be
       -0.038407493 -0.40214828 0.23554748 -0.27938086
0000e0 f1 2d f1 3d 4d 92 83 3e 06 2a 2a 3e 3e 23 d6 be
       0.11776341 0.25697556 0.16617593 -0.41823763
0000f0 ad 9c ac 3d 4b bf c2 3d da 16 20 be e1 35 a6 3e
       0.08428321 0.095091425 -0.15633717 0.3246298
000100 9d ab b1 be 2b d9 2f 3e 2f a0 3a be 9f 05 81 3c
       -0.34701243 0.17172687 -0.18225168 0.01574975
000110 28 4b 3b be 90 ed 21 3d 17 46 e7 be dc 99 86 3e
       -0.18290389 0.039533198 -0.45170662 0.2628926
000120 85 dd 22 3d 06 84 89 be 51 b5 bb 3e 5b 3b 24 be
       0.03976204 -0.26858538 0.3666177 -0.16038267
000130 4a 5e 65 be f6 71 a8 be a9 08 31 be 4a ca 68 be
       -0.2239925 -0.32899445 -0.1728846 -0.22733417
000140 c3 47 cd 3e 0d 90 72 be 6f 03 ce 3d 41 d4 81 be
       0.40093812 -0.23687764 0.10059249 -0.2535725
000150 08 0b cd 3e 66 2a c6 3d 2a fb 33 3e 18 1b f9 3d
       0.4004748 0.096760556 0.1757628 0.12163371
000160 69 10 0c 3e c5 32 d8 3e 06 05 30 bf e2 b5 ad be
       0.13678135 0.42226234 -0.68757665 -0.33927828
000170 4a 24 dc 3d 3c f6 1e 3e 91 b5 50 3d 8a 3f b0 be
       0.10749109 0.15523618 0.050954405 -0.34423476
000180 8f 62 05 be 0c db 7d 3e 11 2d 42 3e f3 93 0b be
       -0.13025878 0.24790591 0.18962504 -0.13630657
000190 0c cd 6f 3e 02 f2 4c be 13 56 0f be 4e a3 1f be
       0.23418063 -0.20014194 -0.13997678 -0.1558964
0001a0 6f 75 3a be 84 09 53 3e 12 0f ab be 4e 40 2e be
       -0.1820886 0.20609099 -0.33409935 -0.17016718
0001b0 d3 6b e3 bc b5 84 1c 3d 9f 6c 58 3e 4b c5 ab be
       -0.027761376 0.038212497 0.21135186 -0.3354896
0001c0 31 68 00 be c2 37 0b be 29 60 cc be e8 3a 94 3e
       -0.12539746 -0.13595489 -0.39917114 0.28951192
0001d0 c8 59 28 bd 46 be 02 3e 52 85 b2 3d 49 7b 25 3c
       -0.041101247 0.12767896 0.08716835 0.010100194
0001e0 e5 ea de bd 98 2f 88 bc d2 53 36 be c7 2c 30 be
       -0.10884646 -0.016624257 -0.17805412 -0.17204581
0001f0 bc 28 61 be 0a 5f 00 bf 0f fc 83 bd cf 03 bc be
       -0.21988195 -0.5014502 -0.06444561 -0.36721656
000200 62 26 5e be 6e b3 85 be 29 95 c4 3e 92 39 99 3e
       -0.2169433 -0.26113456 0.3839505 0.29926735
000210 5f 04 af 3d 20 8c 04 3e 43 00 ad be 68 27 99 be
       0.085457556 0.12944078 -0.33789262 -0.29912877
000220 4f 6b 40 3e ff 60 42 be 03 5a 8f be ce 6a 07 3e
       0.18790935 -0.18982314 -0.2799836 0.13224337
000230 0c b7 47 be bc db a9 3e 0f 3f 7e 3e 4d c8 71 be
       -0.1950342 0.33175457 0.24828742 -0.23611565
000240 13 a7 ab 3e a5 d7 80 be d2 fc 40 bf 5a 8f 9b bd
       0.33525905 -0.25164524 -0.75385773 -0.075957015
000250 5d 83 90 be 1d ae f4 be 6a 3f 19 be 7f 95 05 bf
       -0.28225222 -0.47789088 -0.14965597 -0.5218124
000260 9c 93 2c 3e d8 0a c6 3e c8 e8 d4 3e 1e 9b d3 3e
       0.16853184 0.38680148 0.41583848 0.41329283
000270 4e 55 77 be e5 8a 6c 3e 25 74 0c 3e 37 e3 ea 3c
       -0.24153635 0.23099859 0.1371618 0.028672798
000280 7f ca 49 bb 74 53 3f 3e d6 45 05 3f 85 33 96 be
       -0.0030790863 0.18684179 0.52059686 -0.2933618
000290 88 54 0a be 43 22 96 be 6e 8e 2f 3d 59 f4 87 bd
       -0.13508809 -0.29323015 0.04286044 -0.066384025
0002a0 76 f7 d3 bd 95 90 df bd d8 fc 12 3e e8 ad 27 3e
       -0.10349934 -0.10916249 0.14354265 0.16374934
0002b0 89 b9 48 3e 2a c8 56 3e 54 d2 0e bf 52 9c 22 bd
       0.19602026 0.20974794 -0.55789685 -0.03969986
0002c0 90 3d 90 3d d7 fc 85 3e f9 4a 97 be c4 31 80 3d
       0.07042992 0.26169464 -0.29549387 0.06259492
0002d0 ca 03 6a 3e 5f 35 2d 3d d5 15 07 bf 8e 95 37 bd
       0.22853008 0.042287227 -0.5276769 -0.04482036
0002e0 f7 0a 0e 3e 8b 8d 1f 3e 5d c4 88 3d 9b 06 d1 3e
       0.1387137 0.15581338 0.06678078 0.40825352
0002f0 be 5c d0 3d b9 e0 75 3e c8 52 5a 3e c2 90 23 be
       0.10173939 0.24011506 0.21320641 -0.1597319
000300 fe 37 60 3c 49 50 dc 3d 41 d0 f4 be da 73 24 3e
       0.013685225 0.10757501 -0.47815135 0.16059819
000310 18 a8 35 bf 98 cd 2e bf da 1e 5a 3e 52 2f c2 3e
       -0.70959616 -0.6828246 0.21300831 0.37926728
000320 27 fc 0a 3d f0 aa 4f 3e 62 18 23 be 2c 23 51 bd
       0.033931877 0.20280051 -0.1592727 -0.051058933
000330 c7 8c 85 3d 1c f8 20 be a2 7e fd bc 65 da d7 3e
       0.06520992 -0.15719646 -0.030944172 0.4215881
000340 c4 cc f2 be c2 af e8 bc 51 af 17 3b df 76 ac 3e
       -0.4742185 -0.02840412 0.0023145268 0.3368444
000350 13 67 75 be ad b5 45 3e 53 65 d2 bd 2d d0 54 3e
       -0.23965101 0.19307585 -0.10273232 0.20782538
000360 8f 34 d8 bd 8e b8 c9 3d ba ad 53 be a2 46 97 3c
       -0.105569 0.09849654 -0.2067174 0.018466298
000370 b5 19 05 3d 9d d6 ad 3d 99 1e 83 3d b3 96 7c bd
       0.03249522 0.084882 0.064023204 -0.061667155
000380 ad e3 34 be c5 1c 05 be ba 84 09 3d f9 45 8b 3c
       -0.17664976 -0.12999256 0.033573844 0.017001139
000390 63 8a e7 bd 2d a1 54 bd d1 78 78 be 86 ef 2c 3e
       -0.11305692 -0.05191152 -0.24264838 0.16888246
0003a0 1a bd 82 bc b1 f8 b1 3d c1 71 ba be 07 b5 93 3d
       -0.015959311 0.08690012 -0.36414912 0.072122626
0003b0 7f c6 a1 3d 75 3a d7 be 8b 0d 0f 3b 19 05 ef 3e
       0.07899188 -0.42036787 0.002182814 0.46683577
0003c0 b1 0d dd bd d8 f1 86 be c5 2b 4e 3e db 2d 3d be
       -0.10793627 -0.26356387 0.20133884 -0.18474524
0003d0 db a0 23 be 6e 76 29 3d 34 58 07 bf e7 b3 05 3e
       -0.1597933 0.04137271 -0.5286896 0.13056909
0003e0 6a 83 7c bc bb b5 c4 3d e8 12 69 be e3 ef a4 bd
       -0.015412191 0.09604975 -0.22761118 -0.08053567
0003f0 a8 d7 1f 3d 97 d0 ca 3d d9 af c5 bd ac 1f 9f 3e
       0.039024025 0.099030666 -0.09652681 0.3107885
