cifar/params/12_bias.npy (npy, 480 bytes, 1 tensors)

array f4 [100]
-0.06244614 -0.06489103 0.29826802 0.53446394 0.6927109 0.18853183 -0.08687295 0.07791433
0.60386264 -0.16353786 -0.06560255 0.2055473 -0.072291136 0.06997712 0.40173474 -0.15336725
-0.19569266 0.10285218 -0.056113854 -0.13314004 -0.14467862 0.06257651 -0.30628097 0.057689805
-0.17207006 -0.1772543 0.0037685612 -0.19620231 -0.0967827 0.42557648 -0.31327733 -0.2840244
0.120521486 -0.33443695 0.029128429 0.38294306 0.02902766 0.17257148 0.49717823 0.21697824
-0.18310656 -0.052435346 0.20916076 0.16781265 0.1872379 0.8541696 -0.20188546 0.16354863
0.002564488 0.01309833 0.28744954 0.20739631 -0.101926155 0.2787044 0.16980019 -0.08097949
0.21953297 0.002374175 0.24453604 0.77150095 -0.19697633 0.081020996 0.89586234 0.12247323
0.017720819 0.4213037 -0.14337906 0.26826864 -0.009156513 0.0063563045 0.48028243 0.11221264
-0.046356853 -0.095580846 0.38265234 -0.3205305 0.5664106 0.04723017 -0.033665992 -0.026041681
0.50463194 0.12623799 -0.010105004 -0.17762896 0.09595937 0.36869395 0.0041789245 0.33096308
0.22604029 0.1268805 0.29044488 0.24664722 -0.22451676 0.73350817 -0.10111226 0.06548677
0.1421142 -0.024585422 0.15830606 0.62623435
00000000: 86c7 7fbd 97e5 84bd 96b6 983e a1d2 083f
00000010: 8055 313f 7d0e 413e 72ea b1bd 8c91 9f3d
00000020: be96 1a3f 7876 27be a15a 86bd fe7a 523e
00000030: 600d 94bd 2a50 8f3d 2db0 cd3e 4e0c 1dbe
00000040: a863 48be 2aa4 d23d a4d7 65bd dd55 08be
00000050: a226 14be 1d28 803d dcd0 9cbe 254c 6c3d
00000060: 2233 30be 2782 35be f7f9 763b 42e9 48be
00000070: 0236 c6bd 29e5 d93e e365 a0be a56b 91be
00000080: f8d3 f63d 523b abbe be9e ee3c 1d11 c43e
00000090: 6acb ed3c 94b6 303e 258e fe3e 8b2f 5e3e
000000a0: 4980 3bbe 72c6 56bd 3d2e 563e 14d7 2b3e
000000b0: 4bbb 3f3e dcaa 5a3f 10bb 4ebe 4b79 273e
000000c0: f810 283b 619a 563c 962c 933e b35f 543e
000000d0: a9be d0bd 58b2 8e3e 1ae0 2d3e 93d8 a5bd
000000e0: 40cd 603e 0c98 1b3b a867 7a3e 1681 453f
000000f0: 2ab4 49be 56ee a53d 3c57 653f 3fd3 fa3d
00000100: 402b 913c 1eb5 d73e f6d1 12be 825a 893e
00000110: 3305 16bc 8c48 d03b 94e7 f53e becf e53d
00000120: afe0 3dbd e4bf c3bd 02eb c33e 931c a4be
00000130: 4900 113f 6c74 413d 5ae5 09bd 5d55 d5bc
00000140: 8f2f 013f 8844 013e 758f 25bc 5ee4 35be
00000150: 5986 c43d 74c5 bc3e 5cef 883b fe73 a93e
00000160: 1b77 673e f6ec 013e 31b5 943e 1791 7c3e
00000170: b9e7 65be 31c7 3b3f f213 cfbd ed1d 863d
00000180: 6386 113e 5e67 c9bc fc1a 223e e550 203f
