cifar/params/12_weight.npy (npy, 40080 bytes, 1 tensors)

array f4 [100, 100]
000000 e1 5c a4 bc f8 46 34 be 98 8c 2a be ec b2 7b bd
       -0.02006382 -0.17605197 -0.16655195 -0.06144993
000010 3e a1 c1 bd 8a d1 21 be c6 ca 34 bb 0f 26 81 be
       -0.09454583 -0.15802589 -0.0027586683 -0.2522435
000020 44 18 f3 3d 1a 72 a7 3d 19 6a 3a 3d b8 f7 1c be
       0.11869863 0.0817606 0.04551134 -0.15328872
000030 78 8d 52 3d a4 60 99 3d 95 72 84 be 7a b5 4f be
       0.051404446 0.07489136 -0.2586867 -0.20284072
000040 e2 75 ca bd 60 47 f3 3c 98 cc 2b be 81 97 a0 3d
       -0.098857656 0.02969712 -0.16777265 0.07841397
000050 d5 fd 8b 3d fc 8b 2d 3e d1 9f 83 3e a0 d6 bc 3d
       0.06835524 0.16947931 0.25707868 0.09220624
000060 35 90 1b be e0 8b 5c be 92 35 33 be cb 1f 1c 3c
       -0.1519173 -0.21537733 -0.17500904 0.009529064
000070 54 6f 9d 3d 9b 31 d8 3d f6 6b 30 3e 28 5a 55 bd
       0.0768725 0.105563365 0.17228684 -0.052087933
000080 76 b4 08 3e 9b 35 7b be cf 52 a4 3c a3 46 1e 3d
       0.1335009 -0.24532168 0.020059017 0.038641583
000090 49 a9 a8 3d 14 4e 9b 3b c6 89 97 bd 3a 33 99 bd
       0.082354136 0.0047395322 -0.07399325 -0.07480474
0000a0 5b 02 97 3c 81 98 bc 3d 16 98 21 bd 8e fd 37 be
       0.01843374 0.09208775 -0.03945168 -0.17967817
0000b0 d5 a1 2e 3d c6 1a 83 be fc 07 76 3d ac 06 56 be
       0.042634804 -0.25606364 0.06006621 -0.20900983
0000c0 2f 7d 38 bd 99 8d 5a bd a1 89 73 3e 75 2e a8 bc
       -0.04504126 -0.053357694 0.2378297 -0.020529965
0000d0 e0 33 bc bd 5d 29 09 3d 95 71 96 bd 79 3e 9e be
       -0.09189582 0.033486713 -0.07345883 -0.30907038
0000e0 ed c6 64 3c 5f 79 a4 3d f3 02 0d be 4a 4d bf bb
       0.013963443 0.08030962 -0.13770656 -0.005838071
0000f0 73 bc 6d 3d 62 70 ea 3d 4b 59 c7 3d fa 06 8d be
       0.058041047 0.114472166 0.09733828 -0.27544385
000100 7c 88 9b be 31 32 35 3c e9 2a 0d 3d ce 3e 04 3d
       -0.30377567 0.01105933 0.03446475 0.032286458
000110 40 e9 c4 3c 60 76 09 be 1f e4 7b 3e 95 aa 66 3e
       0.024037004 -0.13424063 0.2459874 0.2252601
000120 b4 11 58 3c df bf 1d be c2 3f 0f 3e e9 ce e7 bd
       0.0131878145 -0.15405224 0.13989165 -0.11318762
000130 17 47 29 3e c6 a7 86 be 61 c5 52 bd dc d1 e9 3d
       0.16531025 -0.26299876 -0.051457766 0.114169806
000140 cb ec 60 3d a1 24 62 bd 7c 72 84 3c 31 3b 95 3d
       0.054913323 -0.055210713 0.016167872 0.072866805
000150 ec 13 71 3e 81 61 d9 bc 7b 4a 17 3e d8 57 1c 3d
       0.23542756 -0.026535751 0.14774506 0.03816971
000160 19 f7 c4 3d 82 cf 94 be 43 0a bf 3b b9 99 f7 3b
       0.09617443 -0.29064566 0.0058300807 0.007556167
000170 d3 dc 1e be 39 3b 2c 3d d8 2d 63 3d b3 56 68 be
       -0.15513925 0.042048667 0.055463642 -0.22689323
000180 df 9d 49 3d ab 83 c5 3d 8c f5 ed bc b0 1b c3 be
       0.049222823 0.09644254 -0.02904775 -0.3810706
000190 0b 89 ee bd 93 3a 7a 3d 7c 89 4c 3e 93 6f 92 be
       -0.116472326 0.061091017 0.19974321 -0.2860075
0001a0 6f ad 84 be 79 2e 29 3e 06 01 9f 3d 3f 75 a7 3d
       -0.2591357 0.16521634 0.07763867 0.0817666
0001b0 0c b6 c0 bd 63 74 04 bd 77 d2 d8 bd b7 ef 90 be
       -0.09409723 -0.032337558 -0.10587018 -0.28307888
0001c0 8e 01 43 3d af 7c 8b 3e 7d 6a 9b 3d c7 a1 81 bd
       0.047608905 0.27243564 0.075886704 -0.06329685
0001d0 b5 bb 95 be c2 a6 22 bd f1 b6 8a bd 8b f4 63 3d
       -0.29244772 -0.039709814 -0.067731746 0.055653136
0001e0 82 89 20 bc 5c 4a 8c be e4 11 81 3e 51 57 33 be
       -0.009798409 -0.27400482 0.25208962 -0.17513777
0001f0 b3 86 6d bd b4 66 9f bd d8 99 1f 3e 20 c2 35 be
       -0.057989787 -0.07783261 0.1558603 -0.17749834
000200 34 5d 90 3d 11 4f 8f bd 9d a8 61 3c 2b 5b f7 bd
       0.07049027 -0.069975026 0.013773111 -0.12077936
000210 80 27 c9 bc 2b d1 15 be 79 00 09 be a2 a5 09 be
       -0.024554968 -0.14630572 -0.13379087 -0.1344209
000220 fb 41 19 be 25 28 a4 3d d7 45 5d be 14 82 1e be
       -0.14966576 0.080154695 -0.21608673 -0.15479308
000230 01 5a 76 3d 4a f3 26 3e 59 9a f6 3c 3f b7 29 be
       0.06014443 0.16303745 0.030102896 -0.16573809
000240 3b 1c 95 bd 01 21 f0 bc c3 09 b0 bd 74 8d 8e bd
       -0.07280775 -0.029312612 -0.08595612 -0.06960574
000250 e3 d9 33 be 23 95 1f 3c ba e3 00 bd e2 04 c4 bc
       -0.17563586 0.009740147 -0.031467177 -0.02392811
000260 47 6d 1e bd 4f c0 57 3e 2f e8 74 be b0 f8 98 3c
       -0.038678434 0.21069454 -0.23916696 0.018673271
000270 ae 3f 8b 3c 93 d5 e6 bd e0 e0 2d 3e c8 fc 36 be
       0.016998138 -0.11271205 0.16980314 -0.17869866
000280 90 a8 dd bd e6 e5 5b 3c ff 67 0e 3d 94 cc 16 3d
       -0.10823166 0.013421511 0.034767147 0.036816195
000290 17 55 ab 3b 8b ea 19 bd 8c 4c a2 3d fd 0d 4e 3d
       0.0052286494 -0.037577193 0.079247564 0.05030631
0002a0 fe cb 50 3c e5 6a 52 be fe 18 21 be 99 37 01 bd
       0.012743948 -0.2054859 -0.1573219 -0.031547163
0002b0 97 68 57 3e c4 8a ca 3d 6e ee 08 3e f7 c3 96 bd
       0.21035992 0.09889749 0.13372204 -0.07361596
0002c0 4d ea 38 bd 91 46 b6 bd 1a 25 24 3d bb 19 9d bc
       -0.04514532 -0.08900178 0.040074445 -0.019177308
0002d0 4d 51 43 3e cb b9 33 be 3c 99 86 3c 62 86 d5 3d
       0.19073983 -0.17551343 0.01643049 0.10426022
0002e0 d0 02 de bd a5 6e 9d bd 7f c0 be bd 5b 0e 05 3d
       -0.1084038 -0.076871194 -0.093140595 0.032484394
0002f0 1c af 67 be b0 95 8e 3e 9d 17 75 be ca d7 94 3d
       -0.22625393 0.27848577 -0.23934789 0.07267721
000300 c4 84 4f be c0 42 48 be 4c ee 37 be e6 b0 8b bd
       -0.2026549 -0.19556713 -0.17961997 -0.0682085
000310 a8 d7 df bd 73 60 ea bd ac 7a 55 be 65 d0 0a be
       -0.10929805 -0.114441775 -0.20847577 -0.13556059
000320 2d cb b9 be 2f 80 c4 3c 93 2a 70 be ac 74 94 3d
       -0.36287823 0.023986904 -0.23453741 0.07248816
000330 e1 ce b1 3d 2a f7 a5 be 54 55 a2 be f0 16 2b 3e
       0.08682037 -0.32415134 -0.31705725 0.16707969
000340 17 ae 2a be 7a 2e 8f bd 2c f7 04 be d9 ae 5c 3d
       -0.16667973 -0.069912866 -0.12984914 0.053877685
000350 9c b1 f8 bd ba 69 0e be 65 e8 d7 bd 28 b1 a4 bd
       -0.12143251 -0.13907519 -0.105423726 -0.080416024
000360 43 f1 4d 3e ad 4b ad 3c c5 4c 85 3e dd ac 1b 3e
       0.20111565 0.02115425 0.26035133 0.15202661
000370 87 93 b5 bd bb 95 30 bd c6 15 3a be 8a a2 a2 bd
       -0.08866029 -0.043111544 -0.18172368 -0.07941158
000380 bd 38 04 3d c5 1b f5 3d 82 83 bf 3d 55 b6 df 3d
       0.032280672 0.11968187 0.09351255 0.10923449
000390 db e9 c2 3d be 6b 42 bd ce 08 15 be 6e 05 a4 bd
       0.09517261 -0.047466032 -0.1455414 -0.08008848
0003a0 59 08 cf bb c5 50 1b 3e 40 5a 6e 3d fa 5a d3 bd
       -0.006318134 0.1516753 0.058191538 -0.10320087
0003b0 c8 31 84 bd a1 17 93 bc 2d ca aa bd ca d7 5c 3e
       -0.064548075 -0.017955603 -0.08339343 0.21566692
0003c0 94 24 44 3e 7d 3a 0c 3e b7 ac 92 3c 0a 85 19 3d
       0.19154578 0.13694187 0.017904622 0.03748039
0003d0 f7 84 6f 3b 86 48 0e be d4 b1 b0 be b2 bd bc bd
       0.003654776 -0.13894853 -0.34510672 -0.09215869
0003e0 86 eb 18 3e ed 98 37 be 03 ba ac be b7 46 ae bd
       0.14933595 -0.1792943 -0.33735666 -0.085095815
0003f0 df 83 24 3d c6 79 ac bd 25 d9 8b 3e ef f4 c8 3d
       0.040164825 -0.08421664 0.27314106 0.098123424
