cifar/params/14_weight.npy (npy, 4080 bytes, 1 tensors)

array f4 [10, 100]
0.16632155 0.023551062 -0.15711488 0.05688287 -0.14640996 -0.111643784 0.024965342 0.032829832
-0.16560358 -0.16114123 -0.09977334 -0.14219944 -0.04182622 -0.07203194 -0.046937894 0.22252592
0.0555841 0.021812582 -0.0979931 -0.18286651 0.20286305 0.04383292 0.10641075 0.12573448
-0.06949036 0.08782223 0.1543609 -0.005661761 -0.04106758 0.123720355 0.19673406 0.116880015
0.044021823 0.16227816 0.040311206 -0.09795088 -0.12483635 0.14527752 -0.09302869 0.078373626
0.10853493 0.2534345 0.0045614396 0.0822357 -0.020821577 0.03193226 -0.19130038 -0.024251526
-0.14599796 0.037301198 -0.2693393 0.18526617 -0.041226167 0.05984896 -0.04570702 0.13732183
0.13706946 0.12695074 0.19705616 -0.25185 0.025545165 0.07816789 -0.096156225 0.053194847
-0.13305755 0.013373915 0.112308085 -0.22022289 0.0038036443 -0.17057624 0.03218032 -0.07088411
-0.15550068 -0.13444713 0.08554056 -0.06276586 0.06363722 -0.15226541 -0.050106786 -0.15010114
0.19051199 0.037273437 0.1034103 0.07211326 0.08734464 -0.05383575 -0.041459598 0.052931994
-0.13205439 0.08116288 0.026846666 0.12446238 -0.127921 0.0554554 0.045390535 0.102276765
-0.028432693 -0.16550805 -0.14708579 -0.11869836 0.12764922 -0.072710186 -0.012448425 -0.21394941
-0.2264659 -0.16678068 -0.012629677 -0.09171069 0.12308986 -0.09793768 0.019929294 0.008649254
-0.20527408 -0.13045673 -0.11335541 0.086956576 0.28057402 0.12849873 0.17245105 0.090989314
0.22788142 -0.10283221 0.012756776 -0.18369201 0.12692086 0.2376128 0.09667518 0.12658618
0.0731935 -0.031281 -0.05214905 0.032985292 -0.14100625 -0.07808368 -0.074352354 0.07371564
-0.028516132 0.009201604 0.022428244 -0.044666417 0.13315205 0.06697278 -0.10999278 0.074752875
-0.095377214 -0.089507416 0.061829936 0.1549559 -0.12619208 -0.086704224 -0.08802884 -0.08743597
-0.0014599998 0.03318766 -0.036046162 -0.24796909 -0.07589756 -0.12835394 -0.2019721 -0.067534484
0.1279401 0.0062448424 -0.1371096 -0.057562966 -0.026379269 0.0004623287 0.091823995 0.032272555
-0.053106867 0.03421255 -0.24367692 0.0328418 0.11923918 0.030197648 -0.048762232 0.12764183
0.010314751 -0.14109614 0.061075553 0.10135795 0.04839427 0.03637356 -0.015193612 0.10707965
0.010362072 0.007955221 0.09301671 0.16173276 -0.21899533 -0.00041353804 -0.025448672 -0.074978545
0.08084479 -0.11614577 0.19784868 0.109193854 0.13271825 0.1721373 0.11144938 0.009297248
0.049881633 0.18828408 0.064897835 -0.063597225 -0.13245572 0.06005111 -0.053997435 -0.0054236143
0.14070036 -0.12569027 0.13111281 -0.04567449 0.12183307 0.14117627 -0.005646634 -0.08303932
-0.11467448 0.08030166 -0.098072596 -0.11136214 -0.114483245 0.066383354 0.1825062 -0.08937702
0.21145333 0.024110572 0.07812846 0.14466673 0.1554577 0.028002242 0.065930754 -0.061655235
-0.13506056 0.23334543 -0.08498508 0.08177172 -0.06382517 -0.10471282 -0.07109967 -0.009648355
0.025626468 0.14223497 -0.15924934 0.29811126 0.10587962 -0.046477117 -0.0697333 0.04157337
-0.16053994 -0.22987232 -0.049266033 -0.13849331 -0.1476771 -0.07756981 0.22225077 -0.26123354
00000000: 3250 2a3e 28ee c03c b9e2 20be 03fe 683d
00000010: 7eec 15be 7fa5 e4bd 1e84 cc3c 9378 063d
00000020: fc93 29be 3502 25be f755 ccbd bb9c 11be
00000030: f851 2bbd 7b85 93bd f341 40bd d6dd 633e
00000040: 27ac 633d 4db0 b23c 9bb0 c8bd 5c41 3bbe
00000050: 55bb 4f3e 268a 333d e1ed d93d 8ac0 003e
00000060: f650 8ebd 24dc b33d c910 1e3e 4b86 b9bb
00000070: 7b36 28bd 1961 fd3d a774 493e ca5e ef3d
00000080: 3a50 343d 3f2c 263e 5d1d 253d 799a c8bd
00000090: 33aa ffbd a1c3 143e d385 bebd 5a82 a03d
000000a0: 9047 de3d 2bc2 813e 2178 953b 316b a83d
000000b0: 0392 aabc 67cb 023d 3fe4 43be 23ab c6bc
000000c0: 7d80 15be 24c9 183d d7e6 89be 6ab6 3d3e
000000d0: c5dc 28bd 2f24 753d 4937 3bbd 189e 0c3e
000000e0: f05b 0c3e 60ff 013e 17c9 493e 7cf2 80be
000000f0: 1844 d13c 7d16 a03d 8eed c4bd d7e2 593d
00000100: 3d40 08be 441e 5b3c c801 e63d 1c82 61be
00000110: 9046 793b 8aab 2ebe 83cf 033d b02b 91bd
00000120: 923b 1fbe 82ac 09be e42f af3d 638b 80bd
00000130: 3b54 823d 77eb 1bbe c63c 4dbd 1db4 19be
00000140: 9315 433e 08ac 183d c8c8 d33d 1eb0 933d
00000150: bfe1 b23d e082 5cbd 8ad1 29bd 38cf 583d
00000160: 4439 07be b938 a63d 8aed db3c 22e6 fe3d
00000170: b9fd 02be 3425 633d 6deb 393d 7b76 d13d
00000180: aeeb e8bc f17a 29be a89d 16be 2018 f3bd
00000190: 7ab6 023e 14e9 94bd 7bf4 4bbc 8e15 5bbe
000001a0: ade6 67be 8ec8 2abe b4ec 4ebc d0d2 bbbd
000001b0: 8916 fc3d 8d93 c8bd c242 a33c 9ab5 0d3c
000001c0: 5e33 52be 7396 05be e226 e8bd 4a16 b23d
000001d0: 66a7 8f3e 2c95 033e 0297 303e 9b58 ba3d
000001e0: bf59 693e b299 d2bd cc01 513c c219 3cbe
000001f0: 8bf7 013e c550 733e a3fd c53d cf9f 013e
00000200: 79e6 953d 8120 00bd 3e9a 55bd 961b 073d
00000210: f163 10be 56ea 9fbd 0c46 98bd 3af8 963d
00000220: aa9a e9bc 53c2 163c 70bb b73c 22f4 36bd
00000230: 0359 083e 0629 893d e543 e1bd 0918 993d
00000240: 2155 c3bd aa4f b7bd 6341 7d3d c2ac 1e3e
00000250: 7f38 01be fc91 b1bd 7748 b4bd a111 b3bd
00000260: 775d bfba c9ef 073d 24a5 13bd 9ceb 7dbe
00000270: 2e70 9bbd 376f 03be c6d1 4ebe 854f 8abd
00000280: bb02 033e 89a1 cc3b 7566 0cbe 25c7 6bbd
00000290: 5619 d8bc b564 f239 380e bc3d 3a30 043d
000002a0: 9686 59bd 7522 0c3d 7186 79be 2085 063d
000002b0: ac33 f43d 0f61 f73c e8ba 47bd 8ab4 023e
000002c0: 34ff 283c 827b 10be 5c2a 7a3d c294 cf3d
000002d0: 1239 463d 71fc 143d a1ee 78bc 934c db3d
000002e0: aec5 293c 9e56 023c 8b7f be3d 469d 253e
000002f0: 5040 60be 23d0 d8b9 bc79 d0bc 5a8e 99bd
00000300: f491 a53d d5dd edbd d898 4a3e 07a1 df3d
00000310: 4be7 073e c344 303e 933f e43d 7c53 183c
00000320: af50 4c3d 8bcd 403e 28e9 843d 433f 82bd
00000330: 79a2 07be 27f8 753d 6a2c 5dbd 93b8 b1bb
00000340: c113 103e f3b4 00be 7042 063e 2d15 3bbd
00000350: 9e83 f93d 8390 103e 6607 b9bb 8510 aabd
00000360: 74da eabd 3275 a43d 49da c8bd d511 e4bd
00000370: 3176 eabd fff3 873d e8e2 3a3e 4d0b b7bd
00000380: 3987 583e 8983 c53c d001 a03d 8423 143e
00000390: 4e30 1f3e f564 e53c b406 873d 338a 7cbd
000003a0: 514d 0abe 1bf2 6e3e a80c aebd ee77 a73d
000003b0: c5b6 82bd ad73 d6bd b49c 91bd 2214 1ebc
000003c0: 99ee d13c 0ba6 113e 4212 23be 0aa2 983e
000003d0: 6ad7 d83d ca5e 3ebd 55d0 8ebd d748 2a3d
000003e0: 9564 24be a663 6bbe 2ecb 49bd 31d1 0dbe
000003f0: aa38 17be ecdc 9ebd b595 633e 67c0 85be
