cifar/params/4_bias.npy (npy, 480 bytes, 1 tensors)

array f4 [100]
00000000: 7b5a e3bf 00e5 bd3f c628 71be cb73 883f
00000010: 51f5 01bf d567 8abf c7c8 0740 4328 e1be
00000020: 5e4c 503f 8cdd b2bd 2039 9b3f 1929 52bf
00000030: 5634 31bf bc89 f83e aebf fa3e e886 65be
00000040: c557 1940 887a 20bf cd42 a93d 249d 90be
00000050: 67f6 16bf af68 33be dc0f 8d3e 3062 abbe
00000060: 1fab acbf 0b98 173e 49a1 163f fb74 5bbc
00000070: 3310 e3be 3229 403f c69f edbe 7151 bd3f
00000080: 34d1 a9bf c0bd e1bd c3d3 efbd a0dc aabf
00000090: 033d aabf 5950 253f 7a14 4b3f 8330 4e3e
000000a0: 2c7c 84bf 38d6 dfbe d6c3 8e3e 8e7e 29bf
000000b0: b605 7e3e aa16 61bf f4c9 ad3e 94c1 2b3f
000000c0: c175 b2bf ab23 bfbf 8b00 0d3f a460 34c0
000000d0: a79e f83e b45a 0bbf b1d6 4abe b5eb 0fbf
000000e0: 7478 88be 8a5f 333f 755c f6bf 161c 6ebe
000000f0: bcd0 12bf 5eca 08c0 c958 78bc d11a c9bf
00000100: a289 d73f 6ebc e23e fb53 043f 169a ad3f
00000110: 8782 c5bf bce1 903f 9bcd b5be 01e6 093e
00000120: 8a22 07bf 8c3b aabd 6067 303f 5cb3 da3e
00000130: d985 41bf c25c 1ebf 809f 773f 09d4 dd3e
00000140: 4191 d33d 5039 83bf 430b eebe 35b8 4abf
00000150: ae0d a43f 370c 92be fd93 10bf 701c e13e
00000160: ce87 acbf 05ba 9b3e 73c1 06bf ffe8 96be
00000170: 04e5 983f 59e9 823e dd59 d7be 0d0e 06be
00000180: dbd2 bd3f c24f 583f b6d1 c9bf 5ad2 573e
-1.7761987 1.483551 -0.2355071 1.0660337 -0.5076495 -1.0812937 2.1216295 -0.4397603
0.8136653 -0.08733663 1.2126808 -0.8209396 -0.69220483 0.48542583 0.48974365 -0.22414744
2.395982 -0.6268697 0.08264694 -0.2824489 -0.5896973 -0.17520402 0.27551162 -0.3347335
-1.3489722 0.14804094 0.5883985 -0.01339459 -0.44348297 0.7506286 -0.4641096 1.4790479
-1.3266969 -0.1102252 -0.11710312 -1.334858 -1.3299869 0.64575726 0.7932812 0.20135693
-1.0350394 -0.43718123 0.27883786 -0.6620873 0.24806866 -0.8792521 0.3394314 0.6709225
-1.3942186 -1.493276 0.55078954 -2.8183985 0.48558542 -0.54435277 -0.19808461 -0.56219035
-0.26654398 0.70067656 -1.9246966 -0.23252901 -0.57349753 -2.1373515 -0.015157887 -1.5711309
1.6838877 0.44284385 0.51690644 1.3562648 -1.5430459 1.1318889 -0.35508427 0.13466646
-0.5278708 -0.08312139 0.6890774 0.42714965 -0.7559486 -0.6186029 0.9672775 0.43325832
0.10330439 -1.0251865 -0.46492967 -0.7918733 1.2816675 -0.28524944 -0.5647581 0.4396701
-1.3478944 0.3041536 -0.5263893 -0.29474637 1.194489 0.25568655 -0.42060748 -0.13091297
1.4829973 0.844967 -1.5767124 0.21076337
