cifar/params/4_weight.npy (npy, 40080 bytes, 1 tensors)

array f4 [100, 100]
000000 5c 6f f7 3e 6f 6e a8 3e 5b c7 c4 be e6 91 f0 3e
       0.48327148 0.32896754 -0.38433346 0.46986312
000010 20 d6 be be cf 43 b7 3e 53 b7 01 3f 7c 33 8a be
       -0.3727274 0.3579392 0.50670356 -0.26992404
000020 71 1a 4e bd 2e 80 01 bf b4 30 49 3e 9c fc e3 be
       -0.050318185 -0.5058621 0.19647485 -0.44528663
000030 60 46 84 be 48 f3 28 bd 1b 22 57 3e c6 7c d2 3e
       -0.25834942 -0.041247636 0.21009104 0.4111082
000040 dd 90 de 3d e9 95 e7 be 87 e4 b1 be e4 59 72 3c
       0.10867474 -0.4523156 -0.34744665 0.014791939
000050 0e d6 57 3e ce 51 b0 3e 39 85 9a be 0b 1b b3 be
       0.21077749 0.34437412 -0.30179766 -0.3498157
000060 0b 95 a9 be b8 50 22 3f 5b df 46 bf 46 0a 62 3e
       -0.33121523 0.6340442 -0.77684563 0.22074232
000070 9e d3 c0 be 00 62 b2 3d ea c1 8f be fe c3 1f be
       -0.3766145 0.08710098 -0.28077632 -0.15602109
000080 15 8d 16 bf d1 92 25 be ec d1 4d 3e c6 95 af 3d
       -0.58809024 -0.16169287 0.2009961 0.08573489
000090 78 ad 69 be 19 a0 3f be e9 b3 6c 3e cd 19 29 3e
       -0.2282008 -0.18713416 0.23115505 0.16513748
0000a0 37 5e ed be 14 52 1e 3c 33 d5 c3 3e 77 ac fb 3e
       -0.46360943 0.009663124 0.38248596 0.49155018
0000b0 ac 48 a1 3e 0c 27 04 3e 5c d6 1f bf f4 96 ae 3e
       0.31500757 0.1290552 -0.6243646 0.34099543
0000c0 cd 0e 0d 3e 4e 3e 5a 3e 01 57 ee be ee 8f 01 bf
       0.13775177 0.2131283 -0.46550754 -0.50610244
0000d0 0c 78 d4 3e 17 63 fb be 02 20 96 3e 5c ae 4e be
       0.41497838 -0.49099037 0.29321295 -0.201837
0000e0 34 6d a7 3e 55 c0 a8 3e ce 9d bb 3e 70 23 d7 3e
       0.32700503 0.32959238 0.36643833 0.42019224
0000f0 69 2a 29 3e 0f 54 5d 3f 8c 4e 21 3d 01 e4 3d 3e
       0.16520084 0.8645639 0.03938155 0.18544008
000100 0b e3 1a 3f cf f3 cd 3e 8e 87 1f 3d 53 5b 29 3f
       0.6050269 0.40225074 0.038947634 0.66154975
000110 4a 76 98 3c 25 e0 6e 3e 0e 39 d2 be 70 e5 3f bf
       0.018611092 0.23327692 -0.41059154 -0.7495947
000120 97 6c 1e 3e 49 a6 59 3e fe b9 21 3e d7 22 1a bf
       0.15471111 0.21254839 0.15793607 -0.6020941
000130 37 53 43 3f 00 7f 85 3e b1 ce 1b bf 1a 30 6c be
       0.7629885 0.26073456 -0.6086226 -0.23065224
000140 b0 ee 64 3c 31 a9 9f be c3 2c 01 be 69 f0 ec bd
       0.013972923 -0.3118377 -0.12614731 -0.11569292
000150 ef fb f1 3e f6 d6 ae be 62 bc 2c 3e 0e c7 9a 3e
       0.47262523 -0.34148377 0.16868737 0.30229992
000160 99 17 04 bd 0d 9e 07 be b2 1a 1b 3f b3 fa 2e bf
       -0.032249067 -0.13243885 0.6058761 -0.68351287
000170 1b 45 27 3e b8 d3 84 3e 50 34 20 3e 6e 7a ee 3e
       0.16334955 0.2594278 0.15644956 0.4657778
000180 b6 bf 84 be 8f a8 25 bd 9f 5e 27 3d 4d 70 34 be
       -0.25927514 -0.040443953 0.040861722 -0.17620964
000190 00 f0 b1 bd 3a d7 83 bd ed 37 4c bf 33 b0 6e 3d
       -0.086883545 -0.064375356 -0.79772836 0.058273505
0001a0 7c 7d c0 be 05 ef be 3d f6 6d 65 bd 4f 91 8f 3e
       -0.37595737 0.09322933 -0.05601307 0.2804055
0001b0 85 cf 55 bf c8 ae 56 3e ab a4 83 be d9 26 1b be
       -0.83519775 0.20965111 -0.2571157 -0.15151538
0001c0 e9 fc de bd d6 b0 2b bd 62 f6 af 3e 59 2d 50 3f
       -0.108880825 -0.04191669 0.34367663 0.81319195
0001d0 aa 32 26 bf 3c 59 02 bf 89 33 24 3e f2 ea 03 3d
       -0.6492106 -0.5091741 0.16035284 0.032206483
0001e0 a8 b1 9d 3e d9 a0 63 3d 04 ad a4 3f 4c bc c0 3d
       0.30799603 0.05557332 1.28653 0.09410915
0001f0 8e 57 32 bf df 4e b9 3e 6c 05 03 3f 2b 05 11 3e
       -0.6966485 0.36192986 0.5118015 0.14162128
000200 3e a5 81 bb 2c 1f 12 3f 04 13 9f 3e 9d 9e c8 3d
       -0.003956466 0.57078815 0.31069195 0.09795878
000210 33 7f dd 3e 98 e0 02 3f 2c 2b a5 bf 3d b1 06 3f
       0.43261108 0.5112395 -1.29038 0.52614194
000220 b5 5e ca be 76 55 06 bf 6e db 49 bf d6 b0 99 be
       -0.3952538 -0.52474153 -0.7885045 -0.30017728
000230 09 a3 69 bf a3 2c e8 3e d2 10 6c 3e 4e b8 03 3e
       -0.91264397 0.45346555 0.23053291 0.12863275
000240 1e 4f a7 3e a4 a2 f1 be 8a 7b 33 bf 55 ca 8b be
       0.3267755 -0.47194397 -0.7011038 -0.27302805
000250 58 fa b8 3e d1 89 92 be 16 b9 c1 3d 41 80 37 bf
       0.36128497 -0.2862077 0.094591305 -0.71680075
000260 4a b9 53 bf 9f d6 74 3f b5 5c 34 3d 0d aa 01 3d
       -0.82704604 0.95639986 0.044033725 0.031656314
000270 ee 57 af 3e df 39 18 3e f9 1c fe 3e ae 77 58 3d
       0.34246773 0.14865826 0.4963148 0.05284851
000280 19 cf 22 bf fe 43 af 3d ff ca ae 3e d3 79 2c bd
       -0.63597256 0.0855789 0.3413925 -0.042108368
000290 45 d9 07 bf 85 96 4e 3d 1a 9a 3a be 37 da f4 be
       -0.530659 0.050436515 -0.18222848 -0.47822735
0002a0 61 ca bc be 55 4c d0 3e f3 cd cb bc 09 3c 9e 3d
       -0.36873153 0.40683237 -0.024878478 0.077262945
0002b0 6c b5 1b 3f 92 c1 ac bd 53 dc bf 3e 29 f4 66 be
       0.608237 -0.08435358 0.37472782 -0.22554077
0002c0 46 6c 20 3f d9 e3 1b 3e 0e c7 00 3f 38 a1 cd 3e
       0.6266521 0.15223636 0.50303733 0.40162063
0002d0 c8 0b aa bc 6e 51 a6 be 3c ea 33 be 08 c3 84 bd
       -0.02075757 -0.32484 -0.17569822 -0.06482512
0002e0 a7 4a 54 3b 4f 7f a1 3c 87 64 bf be 8f 74 11 3f
       0.003239313 0.019714026 -0.37381384 0.5681848
0002f0 e4 99 ae be 38 4a a6 be a1 b2 15 3e 16 26 44 3e
       -0.34101784 -0.324785 0.14618923 0.19155154
000300 93 9b e2 be 0e eb b9 3c 9f 8f f3 3c 5d 5b 11 3e
       -0.4425932 0.02269509 0.02973157 0.14195009
000310 b0 98 4f bd d9 b6 ac be 97 4f 36 bf 24 2d e1 be
       -0.050682724 -0.33733252 -0.71215194 -0.43979752
000320 33 3a bc be 1d 58 9d 3e 44 cb 6a be 1c 51 94 3e
       -0.36763152 0.30731288 -0.22929102 0.28968132
000330 65 e7 2c 3c 54 21 bc bb d3 2d c2 be 7f 85 86 3f
       0.010553216 -0.0057412777 -0.37925586 1.050949
000340 70 a4 d8 bd d5 71 c9 be 12 3d 91 be c2 9e 7e be
       -0.10578239 -0.3934466 -0.28366905 -0.24865249
000350 8d f4 18 bf 5e 41 82 3e ce be bf be ee 10 0f bf
       -0.59748155 0.25440496 -0.3745026 -0.5588521
000360 8f ff 27 be 23 f8 c0 bd 26 0f 03 be e4 6e b0 be
       -0.16406082 -0.09422328 -0.12798747 -0.34459603
000370 c1 f0 0a be 29 0a f5 be e0 ec d5 be 21 e5 e0 3e
       -0.13568403 -0.47859314 -0.41782284 0.4392481
000380 f7 63 4d be 31 18 0a bf 63 ac 7f be f1 b0 97 be
       -0.20057665 -0.53943163 -0.24968104 -0.29627183
000390 25 81 b4 bc 2a 06 2e 3c c8 e7 1e be fb b2 82 3e
       -0.022034237 0.010621587 -0.15518105 0.25527176
0003a0 d5 a4 82 3f f7 5a 81 bd 18 90 6a 3e bb 8c c9 be
       1.0206553 -0.06316178 0.2290653 -0.3936518
0003b0 cc f2 52 3f 4f 10 db be 5c 29 66 bf 24 52 96 be
       0.8240173 -0.4278588 -0.8990686 -0.29359543
0003c0 f8 ed cf be a6 10 9c be 20 43 8b 3e fd 53 92 bd
       -0.40611243 -0.30481452 0.2719965 -0.07144926
0003d0 d7 da a8 3e bc 0a 88 3e d1 f9 07 3f 49 19 14 3c
       0.32979462 0.2657069 0.53115565 0.009039232
0003e0 3b 6d 39 be 0f 27 2b bf 6b 2e 87 be de b1 98 3d
       -0.18108074 -0.66856474 -0.26402602 0.074558005
0003f0 61 d4 cb 3b 38 51 0a bf f8 57 87 3e be fc a8 bd
       0.006220386 -0.5403018 0.26434302 -0.08251332
