cifar/params/6_bias.npy (npy, 480 bytes, 1 tensors)

array f4 [100]
00000000: d471 9fbe 0aca b43e face 313e b31e 4dbd
00000010: ba95 9ebd 5903 5f3f f1f7 16bf 2101 90bd
00000020: 4a09 863e 5bb2 7abd 79cd 413d 982f 74be
00000030: d694 c33d 2201 5abe 5342 ffbe bea7 e63e
00000040: 2ae3 dd3d d271 d0bd 5612 8d3e fc76 5f3f
00000050: 80cc bc3e d1e3 943f e8e4 6fbf 0614 dabe
00000060: c574 cb3d e1b9 b9be 362a c3bd 6f10 16be
00000070: ecab 303e a7e6 2bbe b58e 303f 93ce 6dbf
00000080: e826 eb3e 5341 3a3f 9b8d 4cbf c3f7 ad3f
00000090: 2291 5e3f 3c49 74be 8341 a63e 539c 9e3d
000000a0: 331b 223f 0422 3ebf f3ca f8be 6d1f 6c3f
000000b0: 79b6 ddbe a93b 05be 3999 1cbe cb34 5d3e
000000c0: da32 f9bf de37 893e 2516 d9bd 096b dabe
000000d0: 123b 943f 18f2 4bbf 8595 34bf 4d64 f23c
000000e0: f08c a43f b653 f03f 1aef a53f fc87 22be
000000f0: 850d 00be 5f0a 5abc 066e 3d3c e711 d9bd
00000100: 4831 84be dfef 8f3f 5a7a 823e 1c0d 2bbf
00000110: c759 bdbd 18ab 2abc 045c 053f 6dbb 083e
00000120: 36d2 57bf 7b66 74bd 738a 82be 9410 0cbf
00000130: 2061 2640 4df1 993f 337d 023f 3f5f 933d
00000140: 0836 d93f 2cec 82bf d22f b4be ba26 0ebf
00000150: 79f1 c4bf 9751 bbbe 1538 10be b9e0 4e3d
00000160: b9a7 b43f 4d98 9e3e 3819 113f 05fa 0dbf
00000170: 78c7 f2be 52b5 0cbf 73ae a23d f3ad f93f
00000180: 1348 36bf bf3d 91be 6eea a6be 488b e1bf
-0.3114153 0.35310394 0.17364112 -0.050078105 -0.07743402 0.87114483 -0.5897208 -0.07031465
0.26178962 -0.06120525 0.047315095 -0.2384628 0.095498726 -0.21289495 -0.4985529 0.45049852
0.10834344 -0.101779595 0.27553052 0.8729093 0.3687477 1.1632024 -0.9370866 -0.42593402
0.099343814 -0.36274627 -0.095295355 -0.14654706 0.17253083 -0.16787206 0.68967754 -0.9289333
0.4592812 0.72755927 -0.7990357 1.3591236 0.86940205 -0.23856062 0.32471856 0.0774466
0.6332275 -0.74270654 -0.48592338 0.9223545 -0.43303278 -0.1301104 -0.15292825 0.2160217
-1.9468644 0.26800436 -0.10599927 -0.42659786 1.1580527 -0.7966628 -0.7054065 0.029588843
1.2855511 1.8775547 1.2963593 -0.15872186 -0.12505157 -0.013308137 0.011561876 -0.10599118
-0.2581885 1.1245078 0.25483972 -0.6681688 -0.09245639 -0.0104167685 0.5209353 0.13352747
-0.8430513 -0.059668045 -0.25496253 -0.54712796 2.599678 1.2026764 0.5097229 0.07195901
1.6969614 -1.0228324 -0.35192734 -0.5552784 -1.5386192 -0.36585686 -0.14083894 0.05050728
1.4113685 0.3097557 0.56679106 -0.55459625 -0.47417808 -0.5496417 0.0794343 1.950621
-0.71203727 -0.2836742 -0.3260073 -1.762063
