cifar/params/6_weight.npy (npy, 40080 bytes, 1 tensors)

array f4 [100, 100]
00000000: 31e7 9a3e 5079 253e 46ff b83d dc4b f63e
00000010: 10c4 d13d 2b29 cdbc 417c bebe d327 4cbe
00000020: 80ee f73e c313 b3be a00f 45be 801d 7ebd
00000030: 419e 7b3e ca4e 73be 80ff b8be 227d 783a
00000040: 2951 863e 3d8e 49bf 4920 d9be a519 a6be
00000050: 00e2 ad3e 030e 033f 01d6 9d3e 1d20 cebd
00000060: 6961 8c3d 7c0c 8ebd a548 c8be 16bf ebbe
00000070: 3e68 9dbe a7cd 3ebe 3ca2 073f 51d9 f33e
00000080: a92a a6be ea35 85be 61bd 37bf 3b17 28bb
00000090: 07e9 4c3d ca04 a33d 09b1 8b3c 424a 59be
000000a0: a2b8 efbe 2b8c a7be f68b d93e dc20 273d
000000b0: af01 48bd 1247 9d3c 8074 32be acac de3c
000000c0: 0135 33be 39f9 18bf b676 363e 008d 39be
000000d0: 587b 513d a2f9 863e a2c4 69be 5bd1 f13e
000000e0: eb11 06bf 57a6 fc3e f008 c03e cefb 9a3e
000000f0: 42a2 13be cdfd 2f3f ddfc 353e dba4 a63e
00000100: c86e 383e a2a0 b83e 1cba e2be f4f5 563e
00000110: 0f27 f5be 90f7 7dbe f117 cd3b ba0a 66be
00000120: 53e7 01be d6b6 2b3e 7149 1e3e 003d dbbe
00000130: d43c 17be 2123 383e e0fb 38bf 03ee 71bc
00000140: b5fd 09bf e472 44bf 4b79 743d c2d8 c63e
00000150: 74f3 a2be 97d5 14bf 0f4d 1f3f c64a 44bf
00000160: b290 193d 28d6 7f3e e754 12bf ac46 a33e
00000170: 2d2c ec3d 416f 7b3c 9a34 923e b5a3 8e3e
00000180: b86a a53d 29b8 98be 824e ea3e 92ab 1a3f
00000190: f61e 3fbf f59a 0abf e5ad c23e 193f 753e
000001a0: 7d14 8ebe 32b2 293e ed55 41be 6956 aabe
000001b0: e043 863e 318e d53c ca20 6fbe 0df6 903e
000001c0: 7074 893e e488 ac3e 21e7 af3e 6bb7 a33d
000001d0: 0bbe 6e3e 0ad6 5b3c c9f3 0b3f 99a8 58be
000001e0: bf19 00bf 3127 93be 9ef9 ed3d e3ee e1be
000001f0: 9114 0c3f 5298 0c3e 1a98 383e b38b 143e
00000200: 8e4c c23e 0f68 c3bd fa3a 573e 9dec fdbc
00000210: 4eef ffbe 974f a23d 9f04 733e ef85 f0be
00000220: 2d20 c2bd 0c2d 5c3e b850 d13d 1f06 41be
00000230: 8766 c53e 63dd 153e 6d5b bcbe 1037 98be
00000240: 0b6a 0d3d e189 1cbf a061 72be a731 ddbc
00000250: 3e9d 3d3e 2aec 7dbf 85b4 ccbe 8666 54be
00000260: a798 a3be b3d8 08be bf9a 813d eb70 763e
00000270: 8936 6abe 7a68 febd 9375 073f b118 54be
00000280: 8199 973e 7b34 23bf f7ca 323e 7448 1cbe
00000290: d1d5 96be 7b7c 323e c59d d9bc 8d59 71be
000002a0: 26d2 eabe d9b8 f9be e8a6 6b3d acb0 81be
000002b0: fa94 c23e f631 9f3b 2c2f b4be e50c 3b3e
000002c0: 0526 3dbe b7d8 afbd 1917 6ebe c494 523e
000002d0: 0239 b63d f684 213e 2b05 9a3e 19c3 1b3e
000002e0: 02ae 70be ea4d b3bc 607a 99be 419a 3fbe
000002f0: 51e3 abbe 6316 bb3e 2fd6 a5be a484 f03e
00000300: 4f30 9c3d 8516 7bbe 24b4 0abf 214e f93d
00000310: 8758 1d3e 1512 073f 9839 48bf e0e8 38bd
00000320: 19a8 81bd 5b55 a8be 4f82 45bd f159 a63e
00000330: b882 d03e 6e74 bcbe 780f 19bd cacf f3be
00000340: ab7a 003f bc42 a53e c4a6 c2bd d93d a5be
00000350: 4cad 1abd 2e90 1bbd 2a95 fabe ee83 babe
00000360: 87b3 acbe 9dab fb3d d471 823e b68a 54be
00000370: 4cb7 053d 7015 9a3e aa4e 97be 9dd9 47ba
00000380: 2d7f 2cbd a1ed 163f 2f4c da3e 064d edbd
00000390: 8904 8cbd d09b db3d 5b7e cabe 68e7 fd3e
000003a0: a1e7 d5be 561e 153e c75d 64be fd23 41be
000003b0: b773 d2be d60e 023e 8a8d bbbe 8ac5 80bd
000003c0: cd52 8ebe 5b3f ccbe 02d2 dbbe 994c d1be
000003d0: 69cd 68bd 33f1 013f 71f4 e7bd 65ab 163d
000003e0: e154 6dbe 9aa4 1f3f 84b1 8c3e 5ae1 203f
000003f0: 639f 96be fe0b ec3d e456 40bd 1547 56bf
0.3025451 0.16159558 0.090330645 0.4810475 0.10242474 -0.025044044 -0.37204173 -0.19937067
0.4842415 -0.34976014 -0.19244242 -0.062039852 0.24572088 -0.23760524 -0.3613243 0.00094790955
0.26233795 -0.78732663 -0.42407444 -0.3244144 0.33961487 0.51193255 0.30827335 -0.10064719
0.06854517 -0.06935975 -0.39117923 -0.46044225 -0.30743593 -0.18633138 0.52981925 0.47626737
-0.32454422 -0.26017696 -0.71773344 -0.0025648612 0.05002692 0.07959898 0.01705219 -0.21219733
-0.4682055 -0.32724127 0.42489594 0.04080282 -0.04882973 0.019198928 -0.17427254 0.027181946
-0.17500688 -0.59755284 0.17818722 -0.18120193 0.05114302 0.2636233 -0.22828916 0.47230038
-0.5237109 0.49345657 0.3750682 0.30270237 -0.14417365 0.68746644 0.17772241 0.3254765
0.1801101 0.36060053 -0.44282615 0.20992261 -0.47881362 -0.24801469 0.0062589576 -0.2246503
-0.126859 0.16768965 0.15457703 -0.42819977 -0.14769298 0.1798215 -0.7225933 -0.014766219
-0.5390275 -0.7673781 0.059685986 0.38837248 -0.31826365 -0.5813841 0.6222696 -0.76676595
0.037491508 0.24984038 -0.571608 0.31889856 0.11531863 0.015346349 0.28555757 0.27859274
0.080769956 -0.29828003 0.45763022 0.60418046 -0.7465662 -0.54142696 0.38023296 0.23949851
-0.27750006 0.16571882 -0.18880434 -0.3326905 0.2622366 0.026068779 -0.23352352 0.28312722
0.26846647 0.3369819 0.34356025 0.079939686 0.23314683 0.01341773 0.5466886 -0.21158065
-0.50039285 -0.28740838 0.11619876 -0.4412757 0.5471888 0.1372998 0.18026772 0.14506416
0.37949032 -0.09541332 0.21018592 -0.030996615 -0.49987262 0.07925337 0.23732232 -0.46977183
-0.09478793 0.21501559 0.10220474 -0.18849991 0.38554785 0.14635234 -0.36788502 -0.2972951
0.03452496 -0.61147887 -0.23670053 -0.027001215 0.18517014 -0.9918848 -0.39981475 -0.20742235
-0.31952402 -0.13363914 0.063283436 0.24066512 -0.22872366 -0.12422271 0.5291378 -0.20712544
0.29609302 -0.63751954 0.17460237 -0.15262014 -0.29460004 0.17430298 -0.026564488 -0.23569317
-0.45863456 -0.4877384 0.05753222 -0.25330102 0.38004285 0.0048582507 -0.3519224 0.18266638
-0.18471535 -0.08586257 -0.23250999 0.20564562 0.08897592 0.15773377 0.30082068 0.15211143
-0.23503879 -0.021887738 -0.29976177 -0.18711187 -0.33571866 0.36540517 -0.32389972 0.46976197
0.07626402 -0.2452031 -0.5418112 0.12173105 0.15365802 0.52761966 -0.7821288 -0.045143962
-0.0633089 -0.3287762 -0.048219975 0.32490495 0.4072473 -0.3680758 -0.037368268 -0.47619468
0.50187176 0.32277477 -0.09504464 -0.3227375 -0.037762925 -0.037979297 -0.48941928 -0.3642878
-0.33730718 0.12288592 0.2547747 -0.20756039 0.03264551 0.3009448 -0.29552203 -0.00076236745
-0.04211347 0.5895634 0.42636248 -0.11586957 -0.068368025 0.10723078 -0.39549527 0.4959061
-0.4177828 0.14562353 -0.22301398 -0.18861385 -0.41103908 0.12700972 -0.36631423 -0.062876776
-0.27797547 -0.39892086 -0.4293366 -0.40878752 -0.05683652 0.50758666 -0.113259204 0.03678455
-0.2317691 0.6236054 0.27479184 0.6284386 -0.29418477 0.11525725 -0.046957865 -0.8370221
