cifar/params/8_bias.npy (npy, 480 bytes, 1 tensors)

array f4 [100]
000000 f5 d3 c0 3f 30 d2 08 3f 77 21 f8 be 67 90 f6 be
       1.5064684 0.5344572 -0.48463032 -0.48157045
000010 31 7a 0d be 70 61 5d 3d ef ef 38 be 79 7d 7e 3e
       -0.13816144 0.054048 -0.18060277 0.24852552
000020 5a fa 42 bf c9 e3 c8 3e 8c c3 e6 bc 6f a3 ec 3e
       -0.76163256 0.39236286 -0.028169416 0.4621844
000030 1a 63 5d 3e e6 d5 8a ba d1 f3 16 3e 87 5d 9b 3e
       0.21619835 -0.0010592311 0.14741446 0.30344793
000040 99 bd 19 bd 13 46 69 bd 7b ef 5f be d4 f2 cf 3e
       -0.03753433 -0.056951594 -0.21868698 0.4061495
000050 d6 fd f2 be 33 ca 18 3f 0c a7 87 be 77 b6 19 bf
       -0.47459286 0.5968353 -0.26494634 -0.60044044
000060 b5 63 00 3e 37 ae da 3e 3e cd b2 3e 79 f5 8a 3e
       0.12538035 0.4271104 0.34922212 0.27140406
000070 aa ef 7d be 64 9b 01 3f 80 bc a9 ba 3e 28 c6 be
       -0.24798456 0.5062773 -0.0012949854 -0.38702577
000080 0a 3d d6 be 3c 8b 39 be ad e5 15 3f 31 b0 79 be
       -0.41843444 -0.1811952 0.5855358 -0.24383618
000090 e9 1a 9d 3d 58 e8 58 bf 01 2f 91 3d 6e 2d c9 bd
       0.07671148 -0.8472953 0.070890434 -0.09823118
0000a0 b0 27 2e 3e 8f 7d 86 3e 53 d0 4c 3f 1c fc c9 bd
       0.17007327 0.2626767 0.8000538 -0.09862539
0000b0 d6 27 5c 3f a8 3d 29 3f 58 e4 44 bf dd 03 a1 3d
       0.85998285 0.66109705 -0.76910925 0.07862065
0000c0 f6 49 d6 be 46 47 fe 3e 65 f5 0e 3f 2c 11 93 3e
       -0.41853303 0.49663752 0.5584319 0.2872404
0000d0 59 65 29 3d 38 cc 8d 3f 6c 77 9d be 41 ce 04 bf
       0.04135642 1.1077948 -0.30755174 -0.5187722
0000e0 e9 4d 5f be 10 5b ae be 78 b7 7c 3c 4d 65 b7 bd
       -0.21807064 -0.3405385 0.015424602 -0.089548685
0000f0 c9 37 cb be bd 5e 84 bf 8e 5c ab 3e 4a 70 14 be
       -0.39690998 -1.0341412 0.3346905 -0.1449596
000100 de b3 66 3f 34 81 05 3f 67 80 63 3c 7a 50 ed 3e
       0.90118206 0.52150273 0.013885594 0.4635046
000110 9b 8b 2b bf 73 a1 3d bd e4 47 04 bf 25 02 47 3e
       -0.67009896 -0.046296548 -0.51672196 0.19434412
000120 0b 1f ae 3e 7a 78 90 3e 08 b0 d2 3d 5b 06 75 3e
       0.3400806 0.28216916 0.102874815 0.23928206
000130 fb f7 28 3e 21 f3 96 3f de d4 80 bd f2 03 70 3f
       0.16500847 1.1792947 -0.06290601 0.9375602
000140 02 0a 3f 3f 57 39 8e 3f f9 2b 36 be 40 e0 18 3f
       0.74624646 1.1111249 -0.17790212 0.5971718
000150 60 47 d0 be bf 56 38 be 13 84 ec bc b8 05 21 be
       -0.40679455 -0.18001841 -0.028871572 -0.15724838
000160 33 13 d9 bd 6d d3 99 3e 13 cb 7a 3f 9a 4d 37 be
       -0.10599365 0.30044118 0.97966117 -0.17900696
000170 4d 32 23 be 60 11 05 be c8 2c e6 3d 27 49 1b 3f
       -0.15937157 -0.1299491 0.1123901 0.60658497
000180 bb 38 74 bd 7e 12 c6 be a2 84 a4 be 4d ae 8f 3f
       -0.059624415 -0.38685983 -0.3213244 1.1225067
