cifar/params/8_weight.npy (npy, 40080 bytes, 1 tensors)

array f4 [100, 100]
000000 83 65 00 3e ec c5 9d bc bf 34 a4 be b4 67 2b bf
       0.12538724 -0.019259416 -0.32071492 -0.66955113
000010 cd 80 82 be 40 2e 39 be 35 ae 85 3e 32 b5 a3 3e
       -0.25488892 -0.18084049 0.26109472 0.3197418
000020 47 18 c9 bd 78 18 e1 bd 72 b7 88 be 09 59 e6 be
       -0.09819084 -0.10990995 -0.26702458 -0.44989803
000030 22 25 21 be f6 19 aa bd 3e 04 a8 bd 8a 39 24 be
       -0.15736821 -0.08305733 -0.08203934 -0.16037574
000040 c1 f0 ee 3c 9b 83 9b bc b4 14 ab 3e 4f 5e 52 3e
       0.029167535 -0.018983653 0.33414233 0.20543788
000050 17 f0 14 bd 42 b2 dd 3e 29 a0 7d be ba 4f 98 bd
       -0.03636178 0.43300062 -0.24768128 -0.07437082
000060 0a d3 cd 3e b1 5e ae bc 97 f6 3e be 92 af 0a be
       0.40200073 -0.021285387 -0.18648754 -0.13543537
000070 06 35 0d 3f e4 f5 e9 be 7a a0 18 3d bc 38 f4 be
       0.5515903 -0.45695412 0.037262417 -0.47699535
000080 0a 42 d3 3e c6 c0 da 3e 4f 7d 04 bf e2 91 00 3f
       0.4126132 0.427252 -0.51753706 0.502226
000090 f6 7f 0f 3f c8 39 d9 3e 11 01 f7 bd 52 da bc be
       0.5605463 0.42426896 -0.1206075 -0.36885315
0000a0 15 34 27 3f 05 90 8b 3e 9f 0b 79 bf 61 7a 23 3e
       0.65313846 0.27258316 -0.9728336 0.15964653
0000b0 22 46 3c 3e 46 f6 bc bc 70 7f e4 3d db 5a ee 3d
       0.18386129 -0.023066651 0.11157119 0.11638423
0000c0 bf 87 2e be 8b 01 84 be 4a 76 82 3e c6 ab d0 be
       -0.1704397 -0.25782427 0.25480872 -0.40756053
0000d0 72 31 98 3e 73 c4 86 be 5a 88 01 bd 1c d1 33 be
       0.29725224 -0.26321754 -0.031624176 -0.17560238
0000e0 50 52 2b be 1e 8a 96 bd fe 35 23 3f bf 31 dc 3e
       -0.16730618 -0.073505625 0.6375426 0.43006703
0000f0 2f 1f 9e be 80 9b 14 be 27 2f 14 3f 04 72 bb be
       -0.30883166 -0.14512444 0.5788445 -0.36610425
000100 fa e3 04 bd 50 33 03 3e fb 30 70 3d 3e 52 04 be
       -0.032443978 0.12812543 0.05864046 -0.12921998
000110 f7 00 a6 3e 7a 0f c5 bd 21 c1 04 3f 90 61 0d 3e
       0.3242261 -0.096220925 0.5185719 0.13806748
000120 63 a8 b4 be 4a 59 cb bd fc d0 c2 3e d7 f3 96 be
       -0.3528472 -0.0992914 0.38050067 -0.2948291
000130 94 96 1a 3e 49 a5 a4 3d 08 7f 21 be 10 31 40 be
       0.15096503 0.08039338 -0.15771115 -0.18768716
000140 27 41 ed 3e 25 94 0d be b9 80 ca be ad 65 c5 be
       0.4633877 -0.13826044 -0.39551333 -0.38554135
000150 59 fb 35 be 86 c6 ff bd 4c bb ba be 59 1b f9 3e
       -0.17771663 -0.12489037 -0.3647102 0.48653677
000160 b5 97 eb 3e c3 19 b7 3e 61 69 e3 bd 3a d3 cb be
       0.4601418 0.35761842 -0.11104084 -0.3980959
000170 75 83 ba be e8 ec c4 bd 25 bb e3 bd f9 f9 8e be
       -0.3642842 -0.09615499 -0.11119679 -0.2792509
000180 f9 0e ec be dc fd 4a 3e 04 4e cd be 6d 79 b7 bd
       -0.46105173 0.19823402 -0.40098584 -0.08958707
000190 26 a4 ec 3e 43 12 aa 3e f0 11 f4 3e 67 c1 da 3d
       0.46218985 0.33217058 0.47669935 0.1068142
0001a0 7a 7b 85 3d 66 c3 a7 be 1a a1 bc be ed 2b 09 be
       0.06517692 -0.32766265 -0.3684166 -0.13395663
0001b0 e6 15 9e bc e4 f3 2c 3e c0 16 2b be d5 ac cc bd
       -0.019297551 0.16889912 -0.16707897 -0.099939026
0001c0 6a ca f5 3d 2a e6 20 be 84 46 62 be cf 54 a2 bc
       0.12001498 -0.157128 -0.22097212 -0.01981583
0001d0 8c ad 84 3e 8a ab 8f bd 60 da be be 83 8f 2a bd
       0.25913656 -0.0701514 -0.37275982 -0.04164077
0001e0 4a ac 82 bc e2 bf 67 3e 6d 5a 7a be 1f 7d a6 bd
       -0.015951294 0.22631791 -0.24448557 -0.08129334
0001f0 21 9b 13 bf 52 be 89 3e be 53 fc 3a b3 25 8c be
       -0.5765858 0.26903015 0.0019251031 -0.27372512
000200 ba 29 c2 3c 99 b6 27 3e 4e 06 04 3d 51 70 ae be
       0.023701537 0.16378249 0.032232575 -0.34070066
000210 f5 f2 69 3e 51 4c 93 be a8 44 b3 3d b0 09 13 be
       0.22846587 -0.28769162 0.087533295 -0.14359164
000220 b4 60 33 3e 6a e2 19 be b6 60 e4 bc 45 60 03 be
       0.17517358 -0.15027776 -0.027878147 -0.12829693
000230 32 0e 14 3e 9b c9 e9 be ad 65 b0 3d 62 3b ba 3e
       0.1445854 -0.45661625 0.08613143 0.3637343
000240 81 45 b6 3e c0 d8 03 be d3 80 a2 3e 47 00 c9 be
       0.35599902 -0.12875652 0.3173891 -0.39258024
000250 73 3a b9 3c 2e e6 b7 3e 5b 2f af 3e a0 c3 e7 3e
       0.022610879 0.359178 0.34215817 0.45266438
000260 ad ce 89 be 5f cb a4 bc 59 cc aa 3e 8e ff 1f 3d
       -0.26915494 -0.020116506 0.3335903 0.039062075
000270 87 35 86 be 61 4b 9b 3d 57 7b a6 3e ed 44 a0 be
       -0.26212713 0.07582737 0.32515976 -0.31302586
000280 ca 1c 82 3e 45 52 9b 3e 7d ac be be 0a 69 2a be
       0.2541259 0.30336204 -0.37240973 -0.16641632
000290 94 25 5d 3e d8 8e 20 be 4f 53 5c 3e 82 53 a6 3d
       0.21596366 -0.1567949 0.21516155 0.081213966
0002a0 fc bb 71 3d 57 e3 24 be 57 59 10 bf d5 cf 6e 3e
       0.059017166 -0.16102348 -0.5638632 0.23321469
0002b0 e7 b4 30 be 73 b4 eb bb f5 44 42 be 6a 0b 22 3e
       -0.17256509 -0.007193142 -0.18971618 0.15824667
0002c0 c7 bc 30 be 53 49 1d 3d 63 db a3 3b 02 a0 8e 3e
       -0.17259513 0.038400006 0.005000518 0.2785645
0002d0 8e dc 9d 3d a5 37 c7 be 80 64 85 3e d8 30 45 be
       0.07708083 -0.3890964 0.26053238 -0.19256914
0002e0 61 b8 b1 3e f2 6f c6 3e 0b 57 88 be 25 86 cb be
       0.34710982 0.38757282 -0.2662891 -0.39750782
0002f0 1d 49 0a 3c 2d 27 83 be 49 f8 f8 3d 32 1a 2a 3d
       0.008440283 -0.25615826 0.12156732 0.041528888
000300 e6 a8 91 be 37 21 96 be 9d 41 de be 79 02 65 3e
       -0.28449172 -0.29322216 -0.43409434 0.22364224
000310 f6 c4 06 3e cf 6d b6 bc be aa ae bd 07 7f 4c 3e
       0.13161072 -0.022269158 -0.0852866 0.19970332
000320 a3 6d 5a 3e da 7c af be 21 55 da 3e cd c9 42 be
       0.21330886 -0.34274942 0.42643073 -0.19022293
000330 23 e9 c8 3d f6 01 97 bd 1c 86 d5 3c 2f 18 cc bd
       0.09810092 -0.07373421 0.026064925 -0.0996555
000340 cd 21 b0 3c 55 35 c3 3e e8 cc 9d 3e 5b 67 5b be
       0.021500492 0.38126627 0.30820394 -0.21426146
000350 be 86 35 3e 8b b0 80 be 39 ae fb be 1e fa 99 be
       0.17727181 -0.25134692 -0.4915636 -0.30073637
000360 92 b2 d0 bd b6 f4 7f be ad 18 39 be 20 f0 39 be
       -0.101903096 -0.24995694 -0.1807582 -0.18158007
000370 af 6e 1c bd 1b 4c 97 be 10 9b 72 bd 47 f4 d9 3d
       -0.038191494 -0.2955025 -0.05922991 0.10642295
000380 4c 4c 60 3e c0 57 63 3e db 92 05 bd d9 e7 a7 bc
       0.21904105 0.22201443 -0.032610755 -0.020496296
000390 90 b8 c2 bd c4 2e 0d 3e c8 31 bc 3e a8 e1 00 3e
       -0.09507859 0.13787371 0.3675673 0.12586081
0003a0 71 cf 9f 3d a8 c1 8f 3e 2c db 1a 3f 8e a3 1b bf
       0.07803238 0.28077435 0.6049068 -0.6079644
0003b0 9f 40 84 3e f8 95 b2 3e 7d 68 29 bf e6 bd d1 3e
       0.25830552 0.34880042 -0.6617506 0.40965194
0003c0 f7 ce a0 be 04 12 f0 bc 5b 8a d4 bd f4 2f 6d 3e
       -0.31407902 -0.029305466 -0.10377952 0.23162824
0003d0 ba 5d fc 3e da f1 78 3e 40 54 2d be 8d 1d 2d be
       0.49290258 0.24311009 -0.1692667 -0.16905804
0003e0 13 ed 3e 3e 4e 09 c6 3e ad 13 5c bd d6 30 21 3e
       0.18645124 0.38678974 -0.0537297 0.15741286
0003f0 47 fd 38 3e 8a b9 28 be 15 12 df 3d e9 ef 70 3e
       0.18065368 -0.16477028 0.10892121 0.23529018
